DDPG+HERe2e-PriorKnowledge/saved_models/FetchPush-v1/model.pt (torch_old, 562034 bytes, 8 tensors)

fc1.weight f4 [256, 28]
0.15533261 -0.0051224 0.14347689 0.08415857 -0.5461747 -0.14287914 -0.37538144 -0.5652481
-0.25014275 0.6506775 -0.78837454 -0.007451059 -0.020840084 -0.04427418 0.3194783 -0.077832155
-0.112446964 -0.11237291 -0.16428226 0.06525084 0.33075786 -0.10449559 -0.09536155 -0.22116934
0.2593834 0.19374393 0.44248256 -0.38000208 -0.12766655 0.118007705 0.010526678 0.07417761
0.5519363 0.43168685 -0.005207301 0.4616269 0.061668642 -0.29180247 0.26753512 -0.09473038
-0.03499265 -0.032458153 -0.26296055 0.34671342 0.22694577 -0.0034957854 0.013883216 0.024660809
-0.24041148 0.36279693 0.23293741 0.027683409 0.16249467 0.15747693 -0.6899135 0.10225398
-0.08234507 -0.24430199 0.13563484 0.029663336 -0.42382413 0.9902172 -0.10255919 -0.2254509
0.03661432 0.04944864 0.12141024 -0.002748773 -0.08881454 0.009609117 -0.021365223 -0.4634339
0.3569747 0.044824462 0.0107306205 0.0063189045 -0.023601027 -0.43743816 0.2816886 -0.035721693
0.011692185 -0.060044255 0.68148965 -0.02823419 0.07558482 -0.009723402 -0.027297268 -0.027887205
-0.1297576 -0.2484108 0.040029053 0.09279511 -0.0134511795 0.060548283 -0.15072285 -0.088275775
0.17586136 -0.30828807 -0.013857902 -0.17844819 -0.16576913 0.017073264 0.17150354 -0.050124876
-0.026478825 -0.1786601 -0.19383888 -0.24633288 -0.35953796 0.061122064 0.06700692 0.2608413
-0.09483577 -0.10683018 0.07346418 -0.12473788 0.1627094 0.6842734 -0.15690011 0.23110847
0.16191334 0.14861347 -0.18204777 -0.044385705 -0.019245878 0.022925911 -0.37070283 0.6284584
0.044431023 0.01589765 -0.033013675 -0.001646796 -0.26308116 0.51492226 0.12442443 -0.068971194
0.1840649 0.31128764 -0.020119784 -0.37175527 0.10136037 0.19478679 -0.054401938 -0.09068474
-0.6212077 -0.43695804 -0.3759849 -0.4470424 0.046732508 -0.50633764 0.6391256 -0.1645173
0.0038319896 -0.022588516 0.1976722 -0.13483782 -0.10250573 -0.05119108 -0.06771525 -0.039456833
0.20154841 -0.1371895 -0.09168546 -0.09258137 -0.19129133 -0.41791707 0.39951506 -0.7603988
-0.09070423 -0.08349938 0.23886181 0.026217068 0.10690628 0.4466381 0.13709792 0.4709013
-0.008497115 -0.19180824 0.33594653 -0.2248526 -0.18273064 -0.25096023 -0.054448098 0.16996098
0.064737014 -0.11632467 0.077050194 -0.026828006 -0.03710316 0.16360529 0.117538005 -0.24385189
-0.0844836 0.18897912 0.2368209 0.0058399686 -0.15830691 -0.0144108515 0.10959968 -0.42791137
0.16468982 1.0329521 -0.71402943 0.07552765 0.09866211 0.33457154 -0.3146137 -0.06973893
0.0097197825 -0.043162767 -0.145743 0.036116082 0.14001396 -0.1051391 -0.052270442 4.3076696e-05
-0.16158289 0.034160465 0.10193387 -0.14270353 0.0045914208 0.6169588 -0.1517782 -0.148698
0.0054161777 0.13107115 -0.0695726 0.117392436 0.22913712 0.3101417 0.32214952 0.13627851
0.03176344 -0.2887838 0.296252 -0.020809183 -0.21201856 -0.21141343 -0.07582458 -0.0020791749
-0.026210994 0.051182218 -0.03808944 0.13490814 -0.08393432 -0.114254765 0.0065631787 -0.03519534
0.037478663 -0.10601481 -0.38669896 -0.1075551 -0.084941804 -0.08405656 -0.43625042 -0.4493918
00000000: 830f 1f3e ced9 a7bb 9beb 123e 545b ac3d
00000010: 1bd2 0bbf e94e 12be ff31 c0be 19b4 10bf
00000020: b612 80be cd92 263f ead2 49bf 0328 f4bb
00000030: d3b8 aabc d858 35bd a992 a33e 7766 9fbd
00000040: 984a e6bd c523 e6bd 9c39 28be 3ba2 853d
00000050: 1859 a93e c901 d6bd eb4c c3bd 377a 62be
00000060: e7cd 843e cf64 463e 138d e23e a28f c2be
00000070: 05bb 02be 06ae f13d 1678 2c3c 6eea 973d
00000080: b34b 0d3f 0f06 dd3e 02a2 aabb 5c5a ec3e
00000090: 4298 7c3d 2267 95be 5dfa 883e 0002 c2bd
000000a0: 7454 0fbd d7f2 04bd c4a2 86be 6c84 b13e
000000b0: 7964 683e 8c19 65bb 6e76 633c 7705 ca3c
000000c0: 6d2e 76be 85c0 b93e 2587 6e3e 51c8 e23c
000000d0: 0165 263e a241 213e 2c9e 30bf 896a d13d
000000e0: 88a4 a8bd 4d2a 7abe dce3 0a3e 8600 f33c
000000f0: 7aff d8be e07e 7d3f 8d0a d2bd 9adc 66be
00000100: e6f8 153d a88a 4a3d efa5 f83d c224 34bb
00000110: 66e4 b5bd 8f6f 1d3c 1f06 afbc 3547 edbe
00000120: 63c5 b63e db99 373d 7ccf 2f3c d00e cf3b
00000130: f156 c1bc e5f7 dfbe 7d39 903e e950 12bd
00000140: 9490 3f3c f7f0 75bd 1b76 2e3f 634b e7bc
00000150: 37cc 9a3d e74e 1fbc 859e dfbc b573 e4bc
00000160: 2ddf 04be 675f 7ebe 81f5 233d 5d0b be3d
00000170: 5662 5cbc 7a01 783d 1757 1abe eec9 b4bd
00000180: 0015 343e efd7 9dbe 410c 63bc 1fbb 36be
00000190: 62bf 29be 3bdd 8b3c a09e 2f3e be4f 4dbd
000001a0: 1fea d8bc acf2 36be b37d 46be b03e 7cbe
000001b0: 5c15 b8be 215b 7a3d ed3a 893d fe8c 853e
000001c0: 4239 c2bd c8c9 dabd 6374 963d 9376 ffbd
000001d0: 4b9d 263e 8b2c 2f3f 6caa 20be b3a7 6c3e
000001e0: 9ccc 253e 212e 183e bb6a 3abe c9cd 35bd
000001f0: 88a9 9dbc 1fcf bb3c c3cc bdbe a6e2 203f
00000200: 4efd 353d ca3b 823c 5939 07bd 4ed9 d7ba
00000210: 93b2 86be f2d1 033f 3cd2 fe3d c540 8dbd
00000220: 827b 3c3e 1861 9f3e 3fd2 a4bc b556 bebe
00000230: 0796 cf3d 3076 473e 91d4 5ebd ecb8 b9bd
00000240: 7807 1fbf f7b8 dfbe 1881 c0be bee2 e4be
00000250: 966a 3f3d 589f 01bf bc9d 233f 3977 28be
00000260: 1e22 7b3b 8d0b b9bc 956a 4a3e ed12 0abe
00000270: 86ee d1bd bdad 51bd 4bae 8abd 7d9d 21bd
00000280: b562 4e3e 677b 0cbe 96c5 bbbd 4d9b bdbd
00000290: e0e1 43be 3af9 d5be 3d8d cc3e 7fa9 42bf
000002a0: 24c3 b9bd b901 abbd 3198 743e 2dc5 d63c
000002b0: aef1 da3d c0ad e43e 6663 0c3e fa19 f13e
000002c0: 7c37 0bbc 6169 44be 2f01 ac3e c33f 66be
000002d0: be1d 3bbe dc7d 80be f804 5fbd 400a 2e3e
000002e0: d794 843d a13b eebd 7ecc 9d3d 68c6 dbbc
000002f0: 7cf9 17bd 2588 273e c4b7 f03d 4fb4 79be
00000300: bd05 adbd be83 413e 2e81 723e 355d bf3b
00000310: 351b 22be 7e1b 6cbc cc75 e03d 3317 dbbe
00000320: 73a4 283e c637 843f a2ca 36bf 3eae 9a3d
00000330: 5c0f ca3d f64c ab3e 0c15 a1be 49d3 8ebd
00000340: b93f 1f3c 71cb 30bd a73d 15be 75ee 133d
00000350: d25f 0f3e 2b53 d7bd 8819 56bd 40ad 3438
00000360: fc75 25be d8eb 0b3d b4c2 d03d e020 12be
00000370: a173 963b 03f1 1d3f bf6b 1bbe 4a44 18be
00000380: 317a b13b 8437 063e 147c 8ebd 726b f03d
00000390: eca2 6a3e e5ca 9e3e c8f0 a43e 988c 0b3e
000003a0: 621a 023d 78db 93be 58ae 973e 0578 aabc
000003b0: 651b 59be c37c 58be eb49 9bbd c442 08bb
000003c0: 70b8 d6bc 72a4 513d ac03 1cbd 5c25 0a3e
000003d0: c2e5 abbd 67fe e9bd ef0f d73b fd28 10bd
000003e0: 3a83 193d 4b1e d9bd 68fd c5be d945 dcbd
000003f0: f8f5 adbd d925 acbd 375c dfbe af16 e6be

fc1.bias f4 [256]
-0.80844355 -0.6480779 -0.86169535 -0.28708324 -1.0920683 -0.75061166 -0.972872 0.44939578
-0.4809695 -0.7114793 -0.9185475 -1.0721167 -0.27009085 -0.3292681 -0.82123363 -1.2169703
-0.7610844 -0.8320499 -0.10990617 -1.1943866 -1.0049949 -0.857173 -0.98188335 -0.1296139
-0.026480647 -0.69515896 -0.5493702 -0.801295 -0.0046206587 -0.7080345 -1.0001906 -1.0919452
-0.10468675 -1.0856118 -0.92898536 -0.96095186 -0.72200257 -0.39790055 -1.3185889 -0.20735587
-1.0090306 -0.6154073 -0.6554899 -0.7445029 -0.92862254 -0.06160286 -1.0226443 -0.66818386
-0.9849057 -0.89013535 -0.82595307 0.8112265 0.16739732 -0.8092443 -1.207884 -0.87444514
-0.6748107 -0.23501526 -0.67385375 -0.9570466 -0.9628563 -0.7259458 -0.84294754 0.01752325
-0.9908783 -0.35253274 -1.0420951 -1.3813663 -0.95543826 -1.0101044 -1.1579303 -0.20456105
-0.78789055 -0.8388362 -1.246276 -0.9986485 -0.7561785 -0.26836586 -0.45819184 -1.080069
-0.9837619 -1.2027297 -0.958842 0.23375998 -0.78693855 0.78521657 -1.2375365 -1.7979441
-1.3755809 -0.76795506 -0.58065534 0.95802116 -0.83142555 -1.0193828 -0.63792795 -0.71975857
-0.909507 -0.8967999 -0.40470308 -0.41160867 -0.17140311 -0.62090737 -0.2491923 -0.5559718
-0.9684429 -1.3233277 -0.85259855 -0.37103432 -0.5784885 -1.0047557 -1.0641172 -0.61195683
-0.9535156 -0.6615467 -0.4976974 -0.66828597 -0.34987482 -0.7033001 -0.90551907 -1.0212804
-0.24199799 -0.5065909 -0.36663318 -1.0456762 -1.1773894 -1.1519896 -1.0427698 -1.1119674
-0.7829356 -0.39534125 -0.67481345 -1.2279527 -0.8369129 -0.33146438 -0.18484002 -1.011032
0.70312643 -0.29583052 -0.23665644 -1.071364 -0.3328789 -1.2719885 -0.22391632 -0.40194595
-0.27104306 0.61911076 -0.32143587 -0.45962867 -0.9608431 -0.5958025 -0.74962234 -1.0198542
-0.6743911 -1.0167472 0.16694207 -0.23925415 -1.0817386 -0.21710993 -0.89915854 0.977581
0.6038682 -1.0833781 -1.0447657 -0.96835524 -0.25169304 -1.1378328 -0.5792889 -0.6442369
-0.49108183 -1.317453 -0.22912481 -0.97743064 -0.609373 -0.7668419 -0.6039004 -1.109192
-0.89759487 -0.6256015 0.6460719 -1.0174316 -0.5242382 -1.4115125 -0.9255228 -0.7212061
-0.90896785 -0.85546917 -0.34452084 -1.0456722 -0.7467897 -0.55636 0.5353912 -0.9154945
0.4133387 -1.3435594 -1.0118341 -0.7875885 -1.0725621 -1.0698705 -0.6034574 -0.61302185
0.18597664 -0.37268034 -0.4292698 -0.7516933 -0.37478387 -0.95330364 -1.036637 -0.4675002
-1.0728343 -0.7304305 -0.9895892 -0.87311983 -0.6884059 -0.7294334 -0.6876015 0.13044418
-0.901862 -0.2680942 -0.57517517 -0.8961869 -0.731053 -0.20560643 -0.977472 -0.48123622
-0.92855287 -0.9646729 -0.3341392 -0.3312895 0.09022171 -0.8978538 -1.0716784 0.7389712
-1.1305844 -1.1527613 0.27438468 -0.9291617 -1.0175886 -1.0339622 -1.0638858 -0.4873512
-1.1049782 -1.0436128 -0.22210746 -0.35908487 -0.5684427 -0.87701714 -0.7081826 -1.2135217
-1.0271019 -0.99799085 0.2600424 -1.3053678 -0.24169879 -0.8118316 -0.62776136 -1.2191352
00000000: 28f6 4ebf 6fe8 25bf 1198 5cbf 93fc 92be
00000010: e5c8 8bbf 1628 40bf 240e 79bf 3417 e63e
00000020: a241 f6be 8223 36bf ee25 6bbf 1f3b 89bf
00000030: 5949 8abe d495 a8be 5e3c 52bf afc5 9bbf
00000040: 6dd6 42bf 3901 55bf 7c16 e1bd a9e1 98bf
00000050: aca3 80bf b16f 5bbf b55c 7bbf 82b9 04be
00000060: f1ed d8bc f0f5 31bf 87a3 0cbf ab21 4dbf
00000070: e568 97bb c041 35bf 3f06 80bf dcc4 8bbf
00000080: 0266 d6bd 54f5 8abf fcd1 6dbf f100 76bf
00000090: 29d5 38bf 9fb9 cbbe 85c7 a8bf 1955 54be
000000a0: ea27 81bf 558b 1dbf 30ce 27bf be97 3ebf
000000b0: 35ba 6dbf 4853 7cbd 02e6 82bf 190e 2bbf
000000c0: c822 7cbf e9df 63bf a971 53bf 8aac 4f3f
000000d0: 346a 2b3e a22a 4fbf f19b 9abf a3db 5fbf
000000e0: 65c0 2cbf d7a7 70be ae81 2cbf 0201 75bf
000000f0: c07d 76bf 95d7 39bf 69cb 57bf eb8c 8f3c
00000100: 33aa 7dbf 2c7f b4be 5f63 85bf 9cd0 b0bf
00000110: 9a97 74bf 1a4b 81bf 0f37 94bf 7478 51be
00000120: 32b3 49bf f8bd 56bf f985 9fbf 6ea7 7fbf
00000130: ea94 41bf 4067 89be 1f98 eabe b33f 8abf
00000140: d2d7 7bbf 0cf3 99bf ab76 75bf c75e 6f3e
00000150: ce74 49bf f403 493f 9967 9ebf 0823 e6bf
00000160: 0913 b0bf b498 44bf d4a5 14bf e040 753f
00000170: 4ed8 54bf 237b 82bf 3f4f 23bf 1942 38bf
00000180: 73d5 68bf ae94 65bf 3e35 cfbe 5fbe d2be
00000190: 4c84 2fbe c9f3 1ebf 442c 7fbe 2b54 0ebf
000001a0: e0eb 77bf cd62 a9bf e643 5abf 36f8 bdbe
000001b0: d317 14bf d69b 80bf fe34 88bf 34a9 1cbf
000001c0: 9919 74bf 205b 29bf 32d2 febe ca14 2bbf
000001d0: cb22 b3be 7a0b 34bf 19d0 67bf 51b9 82bf
000001e0: 52ce 77be f1af 01bf 58b7 bbbe b8d8 85bf
000001f0: b2b4 96bf 6574 93bf 7b79 85bf f354 8ebf
00000200: 786e 48bf 2b6a cabe 93c0 2cbf 8e2d 9dbf
00000210: ec3f 56bf b3b5 a9be b446 3dbe 7f69 81bf
00000220: 1800 343f 1977 97be 1156 72be 7522 89bf
00000230: 1a6f aabe 85d0 a2bf 524a 65be dccb cdbe
00000240: 28c6 8abe 0b7e 1e3f 3e93 a4be 7354 ebbe
00000250: d0f9 75bf 8386 18bf 40e7 3fbf 958a 82bf
00000260: e5a4 2cbf c624 82bf ddf2 2a3e 0aff 74be
00000270: 6976 8abf 1152 5ebe 412f 66bf c042 7a3f
00000280: 1b97 1a3f 22ac 8abf e2ba 85bf 21e6 77bf
00000290: e9dd 80be 81a4 91bf 474c 14bf b6ec 24bf
000002a0: 146f fbbe 4da2 a8bf b29f 6abe e538 7abf
000002b0: deff 1bbf c04f 44bf 3799 1abf 01fa 8dbf
000002c0: c7c8 65bf 6b27 20bf f864 253f 333b 82bf
000002d0: 7a34 06bf 71ac b4bf 10ef 6cbf f7a0 38bf
000002e0: 1eb2 68bf 0700 5bbf 0965 b0be 96d8 85bf
000002f0: 9c2d 3fbf 9c6d 0ebf 660f 093f d95d 6abf
00000300: 21a1 d33e c1f9 abbf c883 81bf 669f 49bf
00000310: b749 89bf 84f1 88bf 2f7c 1abf 00ef 1cbf
00000320: a970 3e3e f5cf bebe 40c9 dbbe f96e 40bf
00000330: ace3 bfbe b50b 74bf 85b0 84bf 305c efbe
00000340: a252 89bf 7efd 3abf b855 7dbf c884 5fbf
00000350: 5e3b 30bf 26bc 3abf a706 30bf 2993 053e
00000360: 6ee0 66bf a543 89be ae3e 13bf 816c 65bf
00000370: 4a26 3bbf 7e8a 52be 9b3b 7abf 9864 f6be
00000380: a4b5 6dbf cef4 76bf 4b14 abbe c79e a9be
00000390: 29c6 b83d bfd9 65bf c22c 89bf 372d 3d3f
000003a0: fdb6 90bf af8d 93bf 267c 8c3e 8bdd 6dbf
000003b0: 5840 82bf e058 84bf 692d 88bf 1986 f9be
000003c0: ed6f 8dbf 1b95 85bf 2370 63be f9d9 b7be
000003d0: 7685 11bf 3284 60bf 744b 35bf ae54 9bbf
000003e0: 1378 83bf 547c 7fbf 4724 853e 4b16 a7bf
000003f0: e37f 77be 32d4 4fbf f8b4 20bf 9f0c 9cbf

fc2.weight f4 [256, 256]
-0.07084311 -0.0025234853 -0.021205734 -0.12698554 0.0008475227 -0.039735332 -0.13262077 -0.014862652
-0.041274562 -0.13560037 -0.13745469 -0.12564683 -0.13573343 0.100252196 -0.020844985 -0.087180614
-0.13670287 0.06491018 -0.01471432 -0.010074411 0.0029093907 -0.07974658 -0.038517997 -0.063499354
-0.08582641 -0.07304079 0.04212266 -0.07273072 0.036786478 -0.035875473 0.027359849 -0.049314022
-0.08948418 -0.02604644 -0.13140854 -0.052478362 -0.01204582 0.0015958617 -0.006443834 -0.094979934
0.023021203 -0.13350779 -0.11699893 -0.0082771545 0.060441703 -0.124541156 -0.02974183 0.0760011
-0.07688782 -0.13018067 -0.036935523 -0.089518204 -0.102483965 -0.07159803 -0.081368946 0.035299372
-0.05892464 -0.13113545 -0.09978428 -0.027362665 -0.00673312 0.0470349 -0.04929706 0.0025792897
-0.2172081 -0.10036343 -0.0916903 -0.09007165 -0.041493364 -0.08005497 -0.096510954 0.051684227
0.026244082 -0.010223151 0.07417794 0.042476982 -0.024378968 -0.16396397 0.050151903 0.00050044135
-0.07035881 -0.051391996 -0.0991644 -0.04658837 -0.015445353 -0.060147557 -0.006613025 -0.094731316
0.033032384 -0.04257388 0.01021742 -0.016858617 -0.09533316 -0.04075428 -0.12710212 -0.06226614
-0.09815446 -0.118602045 -0.16359012 -0.022059323 -0.01967118 -0.0638519 -0.06705652 -0.03689355
-0.073142 -0.07670407 0.0130817285 -0.016281448 -0.16605297 -0.097223215 -0.036725126 -0.10459989
-0.11481966 0.014788017 -0.05084158 0.039166477 -0.018726233 -0.0070988624 -0.024792455 -0.08987971
-0.07078224 -0.13400239 -0.012437126 -0.10540401 -0.024070201 -0.03133998 -0.01066765 -0.11961779
-0.08818267 -0.095629714 -0.05290486 0.04680172 0.023866247 0.0013101888 -0.13861756 -0.09331679
-0.07031237 -0.068877295 -0.13080014 -0.0041152 -0.030759482 -0.02252916 0.052345924 -0.17820036
-0.00068164885 -0.04667543 -0.07241512 -0.038416486 -0.056603163 -0.045657616 -0.09747731 -0.05929523
-0.038511783 -0.022173319 -0.10706351 0.12345916 0.011294362 -0.056229845 0.060669128 -0.118701294
-0.13359359 -0.0035003403 -0.07065431 0.020566968 0.05614889 0.06893898 -0.070073105 0.00078155164
-0.012196416 -0.0041629192 -0.03895094 -0.046156116 -0.10061978 -0.102119386 -0.048232906 -0.08428004
-0.04210446 -0.0028394067 -0.012165805 -0.0352322 -0.020710567 -0.011839404 -0.05108314 -0.13010184
-0.051355004 0.03754269 -0.00791362 -0.08721184 -0.08148827 -0.10986647 -0.13994183 0.007622254
0.02951249 -0.042534087 -0.12157956 0.033655845 -0.034062747 0.005418058 0.047335144 -0.04765605
-0.009215136 -0.053292606 0.10092448 -0.037149105 -0.08756318 -0.05332268 -0.07917483 -0.047462307
0.024160387 -0.040228657 -0.05800524 -0.08401157 -0.06976562 -0.030898262 -0.013818316 -0.07293494
0.05650397 -0.054874986 -0.1369453 -0.040233515 -0.047729123 -0.086782485 -0.05453055 -0.0032854264
-0.127669 -0.054376677 -0.03347223 0.037800536 0.022470517 0.08088792 -0.08729509 0.030810125
-0.042058166 -0.08610756 -0.13945371 0.08241341 -0.102914974 -0.085251816 0.053023748 -0.067202866
-0.062416546 -0.07094703 -0.0044609373 0.046167538 0.027800795 -0.0749245 0.06115385 -0.09651877
-0.11548274 0.006991091 -0.058649197 0.018526208 -0.08714021 -0.1459167 -0.044124994 -0.057664502
00000000: 3116 91bd 0f61 25bb a6b7 adbc 7f08 02be
00000010: 492c 5e3a 84c1 22bd bdcd 07be 7b82 73bc
00000020: 840f 29bd d3da 0abe ecc0 0cbe 90a9 00be
00000030: b4fd 0abe 0651 cd3d 1ac3 aabc c08b b2bd
00000040: d6fb 0bbe a1ef 843d 5514 71bc 240f 25bc
00000050: 7aab 3e3b 2d52 a3bd 0cc5 1dbd f30b 82bd
00000060: c2c5 afbd 6996 95bd cf88 2c3d d8f3 94bd
00000070: 6bad 163d 29f2 12bd c321 e03c 80fd 49bd
00000080: 7b43 b7bd 585f d5bc f68f 06be 8df3 56bd
00000090: d55b 45bc 3c2c d13a cc26 d3bb d784 c2bd
000000a0: f696 bc3c 44b6 08be 239d efbd e79c 07bc
000000b0: b891 773d 6f0f ffbd 23a5 f3bc 77a6 9b3d
000000c0: 5d77 9dbd 154e 05be b449 17bd 5255 b7bd
000000d0: 1de3 d1bd fda1 92bd c3a4 a6bd 1396 103d
000000e0: f75a 71bd 5f48 06be b35b ccbd ab27 e0bc
000000f0: 81a1 dcbb aba7 403d b7eb 49bd 4d09 293b
00000100: cd6b 5ebe 588b cdbd 20c8 bbbd 7c77 b8bd
00000110: f2f4 29bd dcf3 a3bd 89a7 c5bd d7b2 533d
00000120: d4fd d63c 017f 27bc 9bea 973d 58fc 2d3d
00000130: 67b6 c7bc 2ce6 27be 156c 4d3d 0d30 033a
00000140: 4818 90bd 6a80 52bd b416 cbbd 72d3 3ebd
00000150: 820e 7dbc 495d 76bd 13b2 d8bb 7e02 c2bd
00000160: f74c 073d f361 2ebd f766 273c 151b 8abc
00000170: 083e c3bd f6ed 26bd 0f27 02be c80a 7fbd
00000180: 3505 c9bd a1e5 f2bd 2b84 27be c1b5 b4bc
00000190: 7425 a1bc c9c4 82bd ee54 89bd b11d 17bd
000001a0: 79cb 95bd 0617 9dbd bf54 563c ac60 85bc
000001b0: ca09 2abe f71c c7bd 166d 16bd 7838 d6bd
000001c0: 9226 ebbd 7049 723c 433f 50bd 076d 203d
000001d0: c267 99bc 939d e8bb 8c19 cbbc da12 b8bd
000001e0: 47f6 90bd ec37 09be 16c5 4bbc 0fde d7bd
000001f0: df2e c5bc 5a5e 00bd 5ec7 2ebc 2cfa f4bd
00000200: 1e99 b4bd 83d9 c3bd c4b2 58bd 29b3 3f3d
00000210: 2683 c33c a4ba ab3a c3f1 0dbe e01c bfbd
00000220: efff 8fbd 8a0f 8dbd 79f0 05be cdd8 86bb
00000230: 4ffb fbbc 138f b8bc ae68 563d 287a 36be
00000240: aeb0 32ba bc2e 3fbd 614e 94bd 9b5a 1dbd
00000250: b8d8 67bd 7b03 3bbd 2fa2 c7bd 8edf 72bd
00000260: 88be 1dbd d2a4 b5bc 1d44 dbbd 28d8 fc3d
00000270: fd0b 393c 4451 66bd 3180 783d aa19 f3bd
00000280: c2cc 08be f765 65bb 35b3 90bd 0f7c a83c
00000290: 61fc 653d e12f 8d3d 7d82 8fbd 0be1 4c3a
000002a0: 7ad3 47bc 1969 88bb 058b 1fbd 320e 3dbd
000002b0: be11 cebd f823 d1bd de8f 45bd 039b acbd
000002c0: ba75 2cbd 5715 3abb 1653 47bc a44f 10bd
000002d0: 35a9 a9bc 0ffa 41bc 8e3c 51bd 6b39 05be
000002e0: a059 52bd 5dc6 193d 21a8 01bc 1f9c b2bd
000002f0: 52e3 a6bd ac01 e1bd e94c 0fbe 1ac4 f93b
00000300: 2dc4 f13c 3938 2ebd b4fe f8bd b6da 093d
00000310: 6185 0bbd f789 b13b 7fe2 413d fe32 43bd
00000320: 15fb 16bc 5949 5abd 7eb1 ce3d a929 18bd
00000330: 5354 b3bd e268 5abd 6a26 a2bd d667 42bd
00000340: 01ec c53c cec6 24bd e796 6dbd 420e acbd
00000350: 47e1 8ebd 5a1e fdbc 3866 62bc ea5e 95bd
00000360: b570 673d 98c4 60bd 643b 0cbe e6cb 24bd
00000370: 9d7f 43bd 04bb b1bd 6d5b 5fbd 4f50 57bb
00000380: aabb 02be 14ba 5ebd 2d1a 09bd bcd4 1a3d
00000390: 1714 b83c 91a8 a53d c5c7 b2bd 8465 fc3c
000003a0: 2f45 2cbd 2959 b0bd f4cc 0ebe 5dc8 a83d
000003b0: 16c5 d2bd 8198 aebd 6e2f 593d a8a1 89bd
000003c0: 7ea8 7fbd ad4c 91bd 0e2d 92bb 2c1a 3d3d
000003d0: 7ebe e33c 0472 99bd 767c 7a3d a2ab c5bd
000003e0: 3782 ecbd 8615 e53b 243a 70bd 46c4 973c
000003f0: 9176 b2bd 306b 15be 69bc 34bd 9d31 6cbd

fc2.bias f4 [256]
-0.11499031 -0.05382865 -0.45747226 -0.026380641 -0.08453263 -0.23586929 0.36652046 -0.023667214
-0.14691727 0.1342506 0.66794115 -0.321666 0.22987139 0.29778692 -0.048076548 0.43229637
-0.10080776 -0.017219352 -0.2675352 0.26544932 0.62155706 -0.09532737 -0.04123618 -0.19844125
0.35136575 -0.31684014 -0.0548754 -0.27320307 -0.036095273 0.2405614 -0.29056877 -0.15713161
0.4456863 0.28689364 -0.1367719 0.43755093 0.12779793 -0.3733349 -0.22541445 -0.11441149
-0.8215376 0.4254255 -0.13092473 0.37613854 0.47923514 -0.21926986 0.44292745 0.011164025
-0.19911733 -0.04558183 -0.08448893 0.40415648 -0.118939236 0.21522303 0.5029987 0.6840249
0.5022234 -0.44168472 0.20149289 0.018942785 -0.083324514 0.37884757 -0.6958231 0.13943975
-0.03820247 0.039369483 0.064010605 0.22740471 0.21664183 -0.018593378 0.112447344 0.11616078
-0.18392202 -0.24009031 0.4073541 -0.40224966 0.7548766 0.91521263 -0.04522608 -0.2988546
0.07727244 -0.07819774 0.3359752 -0.89979833 -0.7738015 0.20100237 -0.00935876 0.3584217
0.024065077 0.23900451 0.1657144 -0.3931779 0.26220766 0.02005275 -0.106963366 -0.24347226
0.24505517 -0.04033842 0.2561455 -0.1358217 -0.08824429 0.43060556 -0.026947407 0.28789726
0.4678707 -1.8475485 -0.082577996 -0.0647918 0.3458539 -0.020894537 0.14691693 0.08500888
-0.073312074 -0.25229248 0.3572453 -0.006518275 0.4739413 -0.2359031 0.35413194 -1.8219718
-0.27386382 -1.4414607 0.055979166 -0.031289473 0.5813518 0.08715562 0.83879507 0.24295065
0.0033538672 0.08314186 0.081067644 -0.36492485 0.014753676 -0.2589311 -1.1379534 -0.06376266
-0.004288786 -0.050355654 0.11848986 -0.056233324 -0.08255927 -1.0096956 0.08951957 0.19691782
0.09360704 0.37795627 0.76003164 -0.07366543 0.55144644 0.15814316 0.11716813 0.6901134
-0.38516477 -0.03227024 -0.13956681 0.098412305 -0.08719734 -0.34417856 -0.0973078 0.564965
-0.0024151676 0.8100522 0.100649655 0.3498763 0.021332638 0.02797066 -0.036052905 0.115567066
0.14586195 0.33768567 -0.21610884 -0.08501345 -0.31276748 -0.71527076 0.1173155 -0.013575683
0.02782902 0.22816579 0.92036754 -0.35394773 -0.038835157 0.088830166 -0.15475637 -0.05041441
0.2535339 0.6605733 0.28039297 0.5913448 0.008366804 0.5321779 0.65239084 0.3581092
-0.75574225 -0.6173254 0.5445187 0.19804984 0.043199874 0.36730665 -0.03684181 0.2023462
-0.1751985 0.19999258 -0.054377455 -0.31602085 0.2277989 0.049996078 0.012981524 0.0043167756
-0.050924692 0.65863436 -0.099640675 0.11624509 -0.06990072 -0.09618964 -0.025599455 0.23015471
0.65476 -0.053284757 0.31577817 -0.030734435 0.13813305 -0.1069838 0.032247405 0.09229624
-0.007238432 -0.7362131 0.17372872 0.58098966 -0.107039385 -0.16570017 0.13293822 0.20166823
-0.15879805 -0.06578042 -0.099354155 0.38585722 -0.64588153 -0.1932164 0.40708646 0.34386408
0.4042021 -0.08518111 0.061301623 0.013034675 -0.26476812 -0.78933996 0.11607161 -0.011787801
-0.19368309 0.12708256 -0.3709366 -0.05749519 -0.93415123 -0.9320252 0.018525777 -0.29456943
00000000: 0a80 ebbd 6e7b 5cbd ce39 eabe 371c d8bc
00000010: 721f adbd b887 71be 92a8 bb3e bfe1 c1bc
00000020: 7b71 16be fd78 093e 31fe 2a3f 68b1 a4be
00000030: 6863 6b3e 8777 983e eaeb 44bd f355 dd3e
00000040: 4d74 cebd 990f 8dbc 60fa 88be f9e8 873e
00000050: 5d1e 1f3f ff3a c3bd 45e7 28bd 2f34 4bbe
00000060: 36e6 b33e df38 a2be 07c5 60bd 46e1 8bbe
00000070: a3d8 13bd ba55 763e 6ec5 94be 1ce7 20be
00000080: ff30 e43e b9e3 923e ef0d 0cbe ad06 e03e
00000090: 76dd 023e c125 bfbe 0cd3 66be 9250 eabd
000000a0: 4a50 52bf 5fd1 d93e 2211 06be 3b95 c03e
000000b0: 4f5e f53e 4788 60be 63c7 e23e 51e9 363c
000000c0: 6ae5 4bbe 03b4 3abd 8808 adbd 99ed ce3e
000000d0: 6a96 f3bd 6d63 5c3e 86c4 003f 411c 2f3f
000000e0: b691 003f 8024 e2be 2754 4e3e e62d 9b3c
000000f0: 0ba6 aabd 4ff8 c13e 7621 32bf 4bc9 0e3e
00000100: 317a 1cbd e541 213d fe17 833d c8dc 683e
00000110: 5bd7 5d3e 2451 98bc cb4a e63d b4e5 ed3d
00000120: 0e56 3cbe 3cda 75be b790 d03e abf3 cdbe
00000130: 983f 413f 604b 6a3f fb3e 39bd 7803 99be
00000140: 0341 9e3d 2326 a0bd f104 ac3e 2f59 66bf
00000150: db17 46bf 91d3 4d3e 7c55 19bc 0d83 b73e
00000160: 2024 c53c 99bd 743e 09b1 293e 9d4e c9be
00000170: 1540 863e aa45 a43c 9c0f dbbd cb50 79be
00000180: beef 7a3e e639 25bd 8125 833e d814 0bbe
00000190: 6cb9 b4bd 5578 dc3e cfc0 dcbc 4567 933e
000001a0: c08c ef3e 787c ecbf a71e a9bd 90b1 84bd
000001b0: c313 b13e 052b abbc 6471 163e 2319 ae3d
000001c0: a424 96bd 7b2c 81be dbe8 b63e 4197 d5bb
000001d0: 6fa8 f23e 9590 71be c850 b53e 5f36 e9bf
000001e0: e137 8cbe c981 b8bf 694a 653d 6429 00bd
000001f0: 79d3 143f a57e b23d 46bb 563f 0ec8 783e
00000200: 8ecc 5b3b 4846 aa3d cb06 a63d 6ed7 babe
00000210: 67b9 713c 9e92 84be 75a8 91bf ff95 82bd
00000220: f288 8cbb bb41 4ebd d0aa f23d ea54 66bd
00000230: d614 a9bd b53d 81bf 0956 b73d d3a4 493e
00000240: 0cb5 bf3d 7c83 c13e 6f91 423f e7dd 96bd
00000250: 982b 0d3f 48f0 213e d8f5 ef3d 46ab 303f
00000260: 5134 c5be cd2d 04bd 9aea 0ebe 648c c93d
00000270: 8594 b2bd 2c38 b0be 5049 c7bd 8ca1 103f
00000280: ca47 1ebb 955f 4f3f 6821 ce3d fd22 b33e
00000290: c9c1 ae3c ba22 e53c 36ac 13bd 6dae ec3d
000002a0: d65c 153e 23e5 ac3e a34b 5dbe 881b aebd
000002b0: 0f23 a0be fc1b 37bf 1c43 f03d 8b6c 5ebc
000002c0: aff9 e33c 4ba4 693e 359d 6b3f a338 b5be
000002d0: 9d11 1fbd 97ec b53d 7478 1ebe 577f 4ebd
000002e0: 32cf 813e 551b 293f ab8f 8f3e 5f62 173f
000002f0: eb14 093c d03c 083f 1603 273f 175a b73e
00000300: 5378 41bf 0a09 1ebf 9465 0b3f 94cd 4a3e
00000310: 5af2 303d 9e0f bc3e 70e7 16bd d833 4f3e
00000320: 3c67 33be dbca 4c3e e5ba 5ebd 7ccd a1be
00000330: 1d44 693e b0c8 4c3d 75b0 543c bd73 8d3b
00000340: 6996 50bd 439c 283f 6910 ccbd e811 ee3d
00000350: 1c28 8fbd 13ff c4bd f3b5 d1bc adad 6b3e
00000360: 5a9e 273f 1e41 5abd adad a13e c8c6 fbbc
00000370: c072 0d3e 531a dbbd db15 043d d005 bd3d
00000380: 5e30 edbb 7678 3cbf f1e5 313e bdbb 143f
00000390: 7737 dbbd 4ead 29be f520 083e 1e82 4e3e
000003a0: f59b 22be e3b7 86bd 317a cbbd 148f c53e
000003b0: 7e58 25bf 85da 45be a36d d03e f40e b03e
000003c0: 94f3 ce3e 6f73 aebd 6917 7b3d 648f 553c
000003d0: b08f 87be 2f12 4abf f4b6 ed3d 9f21 41bc
000003e0: dc54 46be ee21 023e 67eb bdbe 1480 6bbd
000003f0: 8924 6fbf 3499 6ebf 5fc3 973c ced1 96be

fc3.weight f4 [256, 256]
0.055259287 0.02675645 0.017913897 -0.007986735 0.021944143 0.028628562 -0.08067872 0.064202435
-0.22684464 -0.33274215 -0.65598905 -0.3634156 0.31861198 -0.7742326 -0.031293157 0.30603623
-0.49568072 0.051908977 0.26946434 -0.120246805 -1.3640817 -0.023347275 -0.060438786 0.036038972
-0.43562478 -0.58307946 -0.02402379 -0.005348867 -1.4599128 -0.9233909 -0.04251524 -0.043539662
-1.1249957 -0.09035077 -0.35693827 -0.13654058 -0.2755742 -0.16493161 -0.111391574 -0.3511166
-0.16610059 0.29832402 0.1580592 0.24078694 -0.316788 -0.06184285 0.28350133 0.07559793
-0.9935478 0.17798804 -0.09903805 0.15377048 -0.045413256 0.006235004 -0.012361945 -0.9173073
-0.41346967 -0.34476963 0.28358757 -0.18866466 -0.32719147 0.14222363 0.18748015 -0.04134097
-0.022044722 -0.29672056 -0.37926754 -0.3647933 -0.25286123 0.17883828 -0.05616424 -1.7967758
-0.072402105 -1.1217915 -0.39031568 -0.33185402 0.115676634 -0.08928003 -0.6945714 -0.49264506
-0.3115254 0.05143444 0.12987973 -0.17690898 -0.54443187 -0.30145797 -0.039754063 0.16967803
0.045872446 0.22353397 -0.06042961 -0.60360956 -0.23219663 -0.16672078 0.057682578 -0.6140567
-0.24635665 -0.05318359 -0.0035612034 0.053720683 -0.036413044 -0.2289363 0.045058206 0.019534165
-0.3093389 -0.37086865 0.31811088 -0.04926222 0.04630126 0.020769443 -0.22660221 -0.10776805
-0.0154767735 0.15537347 -1.4000319 0.09025313 -0.111718796 -0.30624977 0.14097376 -0.037302792
-0.029211747 -0.3946078 0.035137683 0.056815065 -0.004687438 -0.17707555 -0.23564439 -0.15893847
0.07236826 0.04707422 0.3442323 -0.4130157 0.116299435 -0.0688461 -0.38194293 -0.6589985
-0.055105656 -0.06305844 -0.10749364 0.04306359 0.033752315 0.045565862 0.16381 -0.61983037
-0.26392046 0.1206653 -0.3374286 0.021382194 0.35204825 -0.25556085 -0.4211583 0.27221617
-0.8345853 -0.015634527 -0.5856688 -0.23869033 0.0032081925 0.23038489 0.021375215 -0.6289212
0.023082945 -0.52091223 -0.13514295 -0.095380604 -0.01921407 0.16799594 -0.0032847507 -0.3414198
0.14261357 0.0011964688 -0.9859666 0.39462098 0.23546882 -0.07185506 -0.53079224 0.24250941
-0.1512886 0.13085395 -1.755784 0.100709505 -0.6419567 0.23831956 -0.15763538 -0.045194753
0.2701891 -0.01940313 -0.26942345 -0.048942335 0.0088751335 -1.2312006 -0.5978169 0.113709174
-0.10991618 -0.04471574 0.1826036 0.090922646 -0.13903968 -0.2974494 0.049934663 0.0021321967
0.021812087 0.4054479 -0.025360951 0.62134457 0.046447817 0.09565778 -0.20436475 0.08807649
-0.059077274 0.03868441 -0.001397485 0.050161276 0.0006848428 -0.1545871 -0.6462872 -0.3800342
-0.07854115 0.3846805 0.03325067 -1.0988746 0.10670692 0.00131849 -0.051600352 -0.6687806
-0.013331412 -0.7248648 0.07548795 0.038325872 -0.2606292 0.16635425 -0.012356689 -0.04791322
-0.38863716 0.010080442 -0.03288444 -0.5630264 -0.11989734 -0.022561526 -0.028917205 0.45358464
-0.29683143 -0.7862609 0.40727004 0.016672064 -0.1562696 -0.16214542 -0.30832618 0.28804836
-0.93920535 -0.25804174 0.23137964 -0.6442143 -0.20762098 -0.30514902 -0.2801857 -0.05989649
00000000: 9057 623d 5830 db3c 2ac0 923c cbda 02bc
00000010: 34c4 b33c 7286 ea3c e23a a5bd 917c 833d
00000020: f649 68be 2e5d aabe e6ee 27bf 9c11 babe
00000030: 1c21 a33e 1c34 46bf 412d 00bd c8b0 9c3e
00000040: ddc9 fdbe 829e 543d 3bf7 893e f543 f6bd
00000050: 3b9a aebf c942 bfbc a98e 77bd 9a9d 133d
00000060: 360a dfbe b244 15bf 8acd c4bc 8c45 afbb
00000070: 6cde babf 5963 6cbf 7624 2ebd a556 32bd
00000080: dcff 8fbf d309 b9bd 9dc0 b6be 4bd1 0bbe
00000090: 1018 8dbe d5e3 28be 4421 e4bd 8ec5 b3be
000000a0: 4616 2abe edbd 983e 45da 213e da90 763e
000000b0: 0932 a2be ee4e 7dbd 1627 913e 16d3 9a3d
000000c0: 2659 7ebf 7f42 363e 76d4 cabd 0276 1d3e
000000d0: 4003 3abd 014f cc3b c189 4abc a7d4 6abf
000000e0: 4cb2 d3be a585 b0be 6432 913e 4f31 41be
000000f0: a485 a7be 12a3 113e ccfa 3f3e 2655 29bd
00000100: 2297 b4bc c2eb 97be 5b2f c2be 30c6 babe
00000110: 0777 81be 6221 373e 790c 66bd c0fc e5bf
00000120: 8e47 94bd dd96 8fbf 75d7 c7be c5e8 a9be
00000130: dfe7 ec3d 73d8 b6bd 6ecf 31bf f93b fcbe
00000140: 4280 9fbe ebac 523d 31ff 043e a127 35be
00000150: e35f 0bbf b358 9abe 28d5 22bd 14c0 2d3e
00000160: bfe4 3b3d 17e6 643e 0a85 77bd 2886 1abf
00000170: f4c4 6dbe dab8 2abe 9144 6c3d d232 1dbf
00000180: eb44 7cbe 09d7 59bd 1463 69bb 380a 5c3d
00000190: d825 15bd 476e 6abe f48e 383d 1d06 a03c
000001a0: ab61 9ebe 7fe2 bdbe 6edf a23e 2ec7 49bd
000001b0: 64a6 3d3d ae24 aa3c 690a 68be 7fb5 dcbd
000001c0: 4b92 7dbc 391a 1f3e 3f34 b3bf a2d6 b83d
000001d0: d3cc e4bd c5cc 9cbe 6d5b 103e d0ca 18bd
000001e0: 794d efbc 090a cabe 88ec 0f3d eab6 683d
000001f0: 1499 99bb 4b53 35be c34c 71be c4c0 22be
00000200: cf35 943d e6d0 403d 373f b03e cb76 d3be
00000210: 662e ee3d 2fff 8cbd 068e c3be 20b4 28bf
00000220: 78b6 61bd c924 81bd a025 dcbd 7263 303d
00000230: de3f 0a3d 45a3 3a3d cfbd 273e 34ad 1ebf
00000240: 9520 87be 5e1f f73d 71c3 acbe b629 af3c
00000250: ab3f b43e dfd8 82be 10a2 d7be eb5f 8b3e
00000260: 62a7 55bf fb13 80bc 64ee 15bf 3d6b 74be
00000270: 8a40 523b 04ea 6b3e 131b af3c fb00 21bf
00000280: 7218 bd3c 815a 05bf ea62 0abe e856 c3bd
00000290: d366 9dbc 2107 2c3e f944 57bb 93ce aebe
000002a0: 4b09 123e d5d2 9c3a 4f68 7cbf c30b ca3e
000002b0: bd1e 713e bf28 93bd 00e2 07bf 6354 783e
000002c0: 66eb 1abe 94fe 053e 88bd e0bf c940 ce3d
000002d0: 4657 24bf 0b0a 743e 2b6b 21be 221e 39bd
000002e0: 3a56 8a3e 50f3 9ebc dff1 89be c277 48bd
000002f0: 0269 113c fb97 9dbf 870a 19bf 5be0 e83d
00000300: bc1b e1bd da27 37bd 70fc 3a3e a735 ba3d
00000310: 6b60 0ebe 4a4b 98be 4a88 4c3d 53bc 0b3b
00000320: 43af b23c de96 cf3e c5c1 cfbc 7010 1f3f
00000330: 1140 3e3d 3ae8 c33d fe44 51be 7261 b43d
00000340: 03fb 71bd 8b73 1e3d d12b b7ba e975 4d3d
00000350: 0687 333a 154c 1ebe 1473 25bf d893 c2be
00000360: 2fda a0bd d8f4 c43e db31 083d eca7 8cbf
00000370: 2889 da3d 2fd1 ac3a e45a 53bd 3535 2bbf
00000380: ff6b 5abc bd90 39bf 6d99 9a3d 97fb 1c3d
00000390: 3171 85be c558 2a3e b673 4abc a740 44bd
000003a0: 73fb c6be 7028 253c d6b1 06bd 8022 10bf
000003b0: bd8c f5bd f3d2 b8bc c6e3 ecbc 3f3c e83e
000003c0: 4afa 97be 6548 49bf b385 d03e da93 883c
000003d0: 2305 20be 7309 26be eedc 9dbe 137b 933e
000003e0: c36f 70bf 0c1e 84be c9ee 6c3e 3aeb 24bf
000003f0: 989a 54be 7e3c 9cbe 8074 8fbe 0656 75bd

fc3.bias f4 [256]
-0.62121797 0.46198764 -0.28111777 0.04172468 -0.4589301 -0.04310996 -0.21034959 -0.15321687
0.1689663 -0.5102268 -0.33013207 -0.2146566 -0.1954994 -0.31031156 -0.053254224 -0.00804876
0.13697748 0.11460793 0.21896426 -0.16988134 -0.13999778 -0.5471188 0.90665627 0.48422557
0.27335024 -0.21337304 -0.07618389 -0.04703203 -0.15318313 0.06707009 -0.53900325 -0.25191334
0.31677088 0.34815907 0.18566205 -0.36532626 -0.035910808 0.17763044 0.0589657 -0.02147924
-0.113540165 0.3250483 0.31018394 0.37979326 0.09405895 0.13885418 -0.2048242 -0.40880573
-0.4989833 -0.3739002 0.054112047 -0.47639728 0.12253058 -0.14319304 -0.4027036 -0.38700256
-0.21302503 -0.46341226 -0.5420319 0.4420599 -0.00645277 -0.27595448 -0.45770973 -0.6966668
0.55307096 -0.52079964 -0.41034377 0.16821903 0.06723313 -0.18734674 0.12748893 0.21319881
0.5189202 -0.21697529 -0.118224114 0.28055188 0.060260363 0.09228877 0.39818344 -0.29580176
0.068180144 -0.20863585 0.42582175 0.17032063 0.022941776 -0.5912209 -0.32142484 -0.026038164
0.33117402 -0.51881725 0.11046455 -0.45542085 -0.19553591 -0.010714234 -0.2598516 0.20210858
-0.04364716 -0.34168854 -0.12652613 0.2591956 -0.13229845 0.2435795 0.44645512 0.20214209
0.3189309 -0.08481518 -0.32879746 -0.2904985 -0.137711 -0.32676852 -0.6252141 -0.12469246
-0.21351877 0.080745116 0.009620482 -0.2967338 -0.17206249 0.14803742 -0.206626 -0.1403383
-0.40479958 -0.026566196 -0.24206534 -0.3249304 -0.12521362 0.34152725 -0.07502642 0.06560982
-0.06053999 0.14433743 0.36350507 0.17680684 -0.42033255 -0.034820385 -0.17146513 0.52359253
-0.29342097 0.22099556 -0.40613824 -0.4222122 -0.47710714 -0.39348143 -0.1649561 -0.52318406
0.06664588 0.21003608 0.43149993 0.011288819 -0.27363384 0.48231566 -0.17750849 0.14537789
-0.20615017 0.6241008 0.59255004 0.17018692 -0.24374366 -0.2987165 0.09203838 0.13104719
-0.1341499 -0.39874944 -0.49135435 -0.24575625 0.3610175 -0.08687424 0.25459656 -0.25028816
0.04634996 0.013941342 -0.18880169 -0.18957996 0.15787384 0.005583963 0.10461515 0.4640857
0.28357485 0.60122323 -0.11768855 -0.19997832 -0.58583295 -0.01511106 -0.6932408 0.29247937
0.41907784 0.08332736 0.110576786 -0.24268496 -0.37619328 0.20553698 -0.11665007 -0.38215214
-0.12152369 0.0023290315 -0.2909379 -0.36861655 0.09094283 -0.099396706 -0.17482148 -0.30088055
-0.13610591 0.13172235 -0.2199413 -0.37371758 -0.0086801415 0.325965 -0.40771782 0.25258783
0.0986192 -0.021548565 -0.11136165 -0.46748945 -0.52509177 -0.5940014 0.094235495 -0.040795915
0.45343342 0.36087704 0.09950746 -0.07474743 -0.0023020664 -0.39103615 -0.01923714 -0.23563394
-0.15626061 -0.32176596 -0.22361332 0.094551764 -0.18430834 0.38057742 0.3940466 -0.11506822
0.2567667 -0.58390003 -0.2878531 -0.31611526 -0.24617834 -0.12848863 -0.07828254 -0.05006271
-0.25756392 0.054906797 -0.47480875 -0.33276772 0.5842013 0.90156835 -0.3204778 -0.12584375
0.1652333 0.022130715 -0.20927282 0.09880051 -0.26189178 -0.25749674 0.40344483 -0.25215098
00000000: 2408 1fbf a589 ec3e abee 8fbe 80e7 2a3d
00000010: e3f8 eabe 1294 30bd e265 57be e2e4 1cbe
00000020: 8005 2d3e 399e 02bf 1207 a9be f1ce 5bbe
00000030: ff30 48be 28e1 9ebe 1a21 5abd f2de 03bc
00000040: d343 0c3e 90b7 ea3d 2b38 603e 60f5 2dbe
00000050: 945b 0fbe fa0f 0cbf a01a 683f 6aec f73e
00000060: 90f4 8b3e 767e 5abe 4d06 9cbd a8a4 40bd
00000070: 0adc 1cbe 0b5c 893d 1efc 09bf c9fa 80be
00000080: cb2f a23e e841 b23e 311e 3e3e 0b0c bbbe
00000090: 3617 13bd c1e4 353e 0586 713d 3bf5 afbc
000000a0: bf87 e8bd bb6c a63e 6ed0 9e3e 4374 c23e
000000b0: fba1 c03d ca2f 0e3e 6fbd 51be fc4e d1be
000000c0: bd7a ffbe d96f bfbe 98a4 5d3d 58ea f3be
000000d0: 50f1 fa3d 32a1 12be 2b2f cebe 3325 c6be
000000e0: 3c23 5abe 5f44 edbe 9ac2 0abf ad55 e23e
000000f0: c271 d3bb e849 8dbe ee58 eabe c158 32bf
00000100: 0f96 0d3f 2053 05bf 9418 d2be 9c41 2c3e
00000110: 86b1 893d d3d7 3fbe 758c 023e ca50 5a3e
00000120: f4d7 043f c52e 5ebe 7c1f f2bd 7fa4 8f3e
00000130: 92d3 763d e501 bd3d b3de cb3e 5473 97be
00000140: 08a2 8b3d a3a4 55be 4f05 da3e 8868 2e3e
00000150: 64f0 bb3c 415a 17bf cc91 a4be fd4d d5bc
00000160: a48f a93e 35d1 04bf 3d3b e23d ec2c e9be
00000170: 913a 48be c18a 2fbc 450b 85be 8df5 4e3e
00000180: 5dc7 32bd cdf1 aebe 1190 01be 49b5 843e
00000190: 3f79 07be e86c 793e c495 e43e 56fe 4e3e
000001a0: e94a a33e 95b3 adbd 2458 a8be 38bc 94be
000001b0: 1d04 0dbe 344e a7be 080e 20bf c35e ffbd
000001c0: aaa4 5abe b25d a53d 3a9f 1d3c 7eed 97be
000001d0: 2631 30be 1f97 173e c495 53be d8b4 0fbe
000001e0: e441 cfbe 5aa1 d9bc fadf 77be 475d a6be
000001f0: 0038 00be a9dc ae3e 74a7 99bd 715e 863d
00000200: c8f8 77bd 31cd 133e 561d ba3e da0c 353e
00000210: d435 d7be d29f 0ebd 8e94 2fbe 290a 063f
00000220: 463b 96be a94c 623e 5af1 cfbe 332c d8be
00000230: 6347 f4be 6676 c9be 40ea 28be 64ef 05bf
00000240: a37d 883d b313 573e 8fed dc3e bdf4 383c
00000250: bc19 8cbe 14f2 f63e c9c4 35be f1dd 143e
00000260: 0819 53be 12c5 1f3f 5cb1 173f 7b45 2e3e
00000270: f097 79be 5ef1 98be 9e7e bc3d 3c31 063e
00000280: 975e 09be e328 ccbe cc92 fbbe 87a7 7bbe
00000290: 49d7 b83e 1feb b1bd 7b5a 823e c525 80be
000002a0: 75d9 3d3d 3a6a 643c 3b55 41be 4021 42be
000002b0: aea9 213e adf9 b63b 7840 d63d a49c ed3e
000002c0: b930 913e c4e9 193f b206 f1bd 1ec7 4cbe
000002d0: 26f9 15bf 6194 77bc 3b78 31bf dbbf 953e
000002e0: 5f91 d63e 89a7 aa3d 1576 e23d 6882 78be
000002f0: 689c c0be 4978 523e 3be6 eebd 72a9 c3be
00000300: 6ae1 f8bd aaa2 183b d0f5 94be 4fbb bcbe
00000310: 3c40 ba3d 8090 cbbd 6704 33be 040d 9abe
00000320: 595f 0bbe 39e2 063e 4b38 61be e957 bfbe
00000330: 2737 0ebc e2e4 a63e 64c0 d0be 3153 813e
00000340: ddf8 c93d 9e86 b0bc 9411 e4bd c75a efbe
00000350: 6a6c 06bf 7a10 18bf 8afe c03d 9e19 27bd
00000360: 6d28 e83e e0c4 b83e 91ca cb3d 2e15 99bd
00000370: 44de 16bb e435 c8be 3597 9dbc 064a 71be
00000380: c802 20be 82be a4be e4fa 64be 5ba4 c13d
00000390: 53bb 3cbe 0bdb c23e 7ac0 c93e e3a8 ebbd
000003a0: ed76 833e 797a 15bf 7b61 93be dcd9 a1be
000003b0: 2d16 7cbe 8692 03be 9952 a0bd 8e0e 4dbd
000003c0: 6bdf 83be f3e5 603d 221a f3be 8860 aabe
000003d0: 378e 153f 2fcd 663f ab15 a4be 2fdd 00be
000003e0: eb32 293e 794b b53c 9d4b 56be ec57 ca3d
000003f0: ae16 86be 9dd6 83be 5290 ce3e ef19 81be

action_out.weight f4 [4, 256]
2.520242 0.06633357 0.001327147 -0.0422691 -0.00059318094 0.074784204 -0.052861832 0.18888482
-0.013130959 -0.8581332 -0.28850365 -0.22209266 -0.09314475 0.113816015 -0.8033071 0.01221496
-0.102037646 -0.06545524 0.0037992115 0.009122455 -0.04404777 0.07209365 -0.013948938 -0.08922786
-0.15200113 -0.3765655 -0.046233714 0.0038668057 0.45694426 0.06970717 0.18405682 -0.12607211
-0.039718997 -0.017452898 0.09985243 -0.44460815 -0.08611645 0.063725874 -0.03244894 0.29419345
0.048166204 -0.044232447 -0.014451525 -0.034931768 0.025109733 0.04390165 0.047719114 0.0107651865
0.019505277 -0.03611621 0.075262554 0.13234942 0.09103056 0.078452386 -1.0074563 0.28811726
-0.58863705 -0.5760799 0.8789261 -0.0070132636 0.0028595997 -0.42514396 0.013406132 -0.10895788
0.05405588 -0.11691165 0.3371493 0.094258964 -0.055406746 0.16085057 -0.011329168 0.085737705
0.045018163 0.021184526 0.115067706 0.030180769 0.037746646 -0.15222062 -0.022018153 -0.043866355
-0.043796774 -0.055365354 -0.031485025 0.047615178 0.033966318 -0.03099871 0.006450999 -0.050261267
0.05080941 -0.22335741 0.015246279 -0.090730816 -0.27906635 0.020467285 -0.0010914227 -0.0027270736
-0.023690442 0.02759457 0.054121908 0.01413518 0.030415602 -0.06561907 -0.035736702 -0.006193974
0.001162983 0.20477104 -0.14981414 -0.025854878 0.0017612684 0.23921104 0.09628122 -0.0830063
-0.054168537 0.18555248 0.062167022 -0.00067816605 -0.057594635 0.06909637 -0.0148294745 0.3774613
0.32001495 -0.09636821 -2.531521 0.23998562 -0.073779285 0.08436996 0.014086274 -0.63164717
0.022727955 -0.007980741 -0.11876985 0.105021596 0.013074363 0.013161365 -0.0403839 -0.18882932
-0.13307784 0.07347452 -0.12474 -0.28687856 0.56866753 0.9428611 0.08334621 0.05894709
0.029819366 -0.011309352 -0.08190775 -0.40996435 -0.08327461 0.06355846 0.07190229 -0.047771882
0.15075988 0.020903386 0.07618539 -0.096230656 0.32371712 0.09280212 -0.023883462 0.0082902545
0.63825977 1.664915 -0.41010633 -0.13139462 -0.06681937 0.01420034 -0.02887539 0.3431924
0.043451842 0.061839253 0.04742778 -0.860014 -0.06143403 -0.06673443 -0.119517736 0.042518124
-0.0019520001 0.074663825 0.013986885 -0.018467065 -0.022044005 0.03244075 -0.41017562 -0.022362834
-0.009319155 0.02849055 0.18549417 0.28177106 0.07546097 0.16373716 0.176499 -0.03370036
-0.06302295 0.0039071036 -0.0018818437 -1.1923119 -0.0990176 0.13458155 -0.012269828 -0.79471797
0.034291998 0.03286676 0.06496998 -0.07391995 -0.054139636 0.0074823904 0.022199746 0.10363692
-0.0065923072 0.022531299 -0.042510435 0.03214309 -0.44484907 -0.82082796 0.029466243 -0.022922851
0.08287534 0.02425383 -0.006586445 0.04322932 -0.050789822 -0.1588597 -0.05600766 -0.5302521
-0.027407028 0.07995833 -0.00063743046 -0.030905118 0.017469171 0.021674791 0.086717725 -0.005462306
0.028552588 0.011817915 0.061742567 -0.01060803 0.052816737 -0.0253419 -0.05427855 0.6178127
-0.024582742 -0.045373872 -0.014647324 -0.0051907864 -0.04113583 -0.10133438 -0.31702065 -0.094321705
-0.02729281 -0.22374538 -0.16698432 -0.028523223 0.043547045 0.043191787 0.046120927 0.17185102
00000000: a54b 2140 e5d9 873d aaf3 ad3a 5d22 2dbd
00000010: b37f 1bba 7628 993d a685 58bd 066b 413e
00000020: 3c23 57bc 9eae 5bbf c0b6 93be 426c 63be
00000030: adc2 bebd 5f18 e93d 89a5 4dbf 4121 483c
00000040: 1df9 d0bd 660d 86bd 31fc 783b 5976 153c
00000050: 6f6b 34bd d6a5 933d 168a 64bc 19bd b6bd
00000060: 2fa6 1bbe 31cd c0be 905f 3dbd 3c6a 7d3b
00000070: 99f4 e93e a2c2 8e3d 6479 3c3e 0c19 01be
00000080: 63b0 22bd 61f9 8ebc 6e7f cc3d aea3 e3be
00000090: d25d b0bd b682 823d 2ee9 04bd 86a0 963e
000000a0: ed49 453d 152d 35bd 17c6 6cbc 9d14 0fbd
000000b0: edb2 cd3c 37d2 333d 1e75 433d 7760 303c
000000c0: 88c9 9f3c 97ee 13bd 4123 9a3d 9b86 073e
000000d0: 3b6e ba3d a5ab a03d 54f4 80bf 1b84 933e
000000e0: ebb0 16bf f979 13bf 4d01 613f 85cf e5bb
000000f0: 1f68 3b3b 78ac d9be 65a5 5b3c 4f25 dfbd
00000100: b369 5d3d 606f efbd d59e ac3e d80a c13d
00000110: 2ff2 62bd 03b6 243e fa9d 39bc 4097 af3d
00000120: f764 383d 2c8b ad3c 9ea8 eb3d a93d f73c
00000130: 3a9c 1a3d b9df 1bbe 6a5f b4bc 35ad 33bd
00000140: 3f64 33bd c8c6 62bd 71f6 00bd 2208 433d
00000150: 4420 0b3d 02f1 fdbc e762 d33b c2de 4dbd
00000160: 871d 503d ceb7 64be 87cb 793c 14d1 b9bd
00000170: c9e1 8ebe 02ab a73c 120e 8fba b4b8 32bb
00000180: 7512 c2bc 020e e23c efae 5d3d 3e97 673c
00000190: 242a f93c 4a63 86bd a660 12bd d2f6 cabb
000001a0: 3c6f 983a 80af 513e e168 19be 9ccd d3bc
000001b0: 5cda e63a bdf3 743e 172f c53d 35ff a9bd
000001c0: d4df 5dbd 7801 3e3e d9a2 7e3d f4c6 31ba
000001d0: 5ae8 6bbd 6682 8d3d 53f7 72bc 9c42 c13e
000001e0: 00d9 a33e b25c c5bd 7104 22c0 cabe 753e
000001f0: 9819 97bd 28ca ac3d 1eca 663c a1b3 21bf
00000200: fa2f ba3c a7c1 02bc 9b3d f3bd 9015 d73d
00000210: da35 563c c4a2 573c 9769 25bd 795c 41be
00000220: 8f45 08be cf79 963d af77 ffbd bfe1 92be
00000230: 3294 113f 585f 713f 6bb1 aa3d 8172 713d
00000240: be47 f43c dc4a 39bc 40bf a7bd d9e6 d1be
00000250: e18b aabd f02a 823d 8241 933d 73ac 43bd
00000260: cc60 1a3e 943d ab3c 1607 9c3d 9414 c5bd
00000270: 40be a53e 0a0f be3d 40a7 c3bc d9d3 073c
00000280: fe64 233f ef1b d53f 75f9 d1be 508c 06be
00000290: 98d8 88bd 8ba8 683c 158c ecbc eab6 af3e
000002a0: 8ffa 313d 284b 7d3d a243 423d e129 5cbf
000002b0: 40a2 7bbd 10ac 88bd b7c5 f4bd 7c27 2e3d
000002c0: 41da ffba 59e9 983d 3f29 653c 3e48 97bc
000002d0: a195 b4bc 98e0 043d 8a02 d2be 4332 b7bc
000002e0: 5eaf 18bc 0465 e93c 2ff2 3d3e 4c44 903e
000002f0: 488b 9a3d b7aa 273e 27bc 343e 6409 0abd
00000300: 2d12 81bd 2907 803b 32a8 f6ba ad9d 98bf
00000310: bdc9 cabd bfcf 093e 6307 49bc a372 4bbf
00000320: c475 0c3d 4c9f 063d fb0e 853d 5863 97bd
00000330: 86c1 5dbd d72e f53b 3edc b53c 983f d43d
00000340: 4804 d8bb 8f93 b83c 6c1f 2ebd 79a8 033d
00000350: 42c3 e3be c821 52bf 3163 f13c b4c8 bbbc
00000360: 8cba a93d f8af c63c 1bd3 d7bb 3a11 313d
00000370: fd08 50bd 1eac 22be 4a68 65bd 9abe 07bf
00000380: b484 e0bc 31c1 a33d 3c19 27ba bb2c fdbc
00000390: 821b 8f3c 558f b13c 1099 b13d 25fd b2bb
000003a0: 1ee7 e93c ee9f 413c c6e5 7c3d 4dcd 2dbc
000003b0: 5d56 583d d199 cfbc 2f53 5ebd f928 1e3f
000003c0: bf61 c9bc f4d9 39bd 54fb 6fbc 7917 aabb
000003d0: 0b7e 28bd 6688 cfbd 8850 a2be bd2b c1bd
000003e0: 2c95 dfbc 821d 65be f0fd 2abe 89a9 e9bc
000003f0: 635e 323d dfe9 303d 4ce9 3c3d b7f9 2f3e

action_out.bias f4 [4]
0.0071414504 0.005171657 0.007650856 0.00027320438
00000000: d402 ea3b 0177 a93b 08b4 fa3b df3c 8f39
